audio_classifier.pth (torch, 10180 bytes, 2 tensors)

fc.weight f4 [2, 1024]
00000000: 4c93 fe3e d457 3cbd ad1c b13d b54f a3bd
00000010: 12ea 01bd 3849 a4be ca89 e93e 0885 4d3f
00000020: 4a43 e53c e7c6 7c3d 1429 1b40 db4e b33d
00000030: 23d5 643d cfb7 9abd 84bb dbbc 0fbe 79bc
00000040: e41b 95bd f72c 31bd da75 e9be 4c02 ef3e
00000050: 974d 9ebe cc1f 88c0 9441 d73d a222 003e
00000060: 6747 33bd 2457 003e 253b 5bbd c41d 4a3d
00000070: 64e9 aabe 9bdb aac0 aefe 923f ce9f 1f3c
00000080: afca 50bd 15e9 b83d b4a8 4a3d 6d45 c6bd
00000090: 57a4 0bbe 1b59 82bf c9bd 82bd bc6f 66bf
000000a0: 994b 09be a210 87be 0a7a fabd 0f9b dfbf
000000b0: 857d 9ebe d724 9e3d 36e1 abbd 6964 873d
000000c0: f978 24be dd47 cc3d 7f86 dfbd 5f5a 103e
000000d0: 449a 093e c199 bd3d 7231 2a3d c9a6 913d
000000e0: 67e3 f9bd 7bfe 593b 1456 6cbf e9aa 17bc
000000f0: dd86 b0bd 5f2d 163d 84d9 63bd e8f8 3cbf
00000100: ff86 41bd 04f7 6bbe 991e b13f fe0f 0fbf
00000110: 2312 0fbd 2372 f13d e78f 0abe 5c4f 123f
00000120: 4b9b 803d 1498 b53c 2f63 19bd 4aa6 6f3f
00000130: 0693 9ebf 67d7 a4bf f14f 323d 3d8e 83be
00000140: 32c5 34be c830 d13c 4625 43bd 609d 873e
00000150: 41de 6ac0 3948 9abc 987a 91bf 804f dfbd
00000160: 2695 c1bd b0b8 55be 916d 91bd 069b 823d
00000170: c75c 75bd ff80 dc3c 5199 ebbf 218b 82bd
00000180: 19f6 393d e0fd 4bc0 a43c bc3e bdd5 903e
00000190: b340 26bd 3fa6 af3f e4de ee3c 9129 833d
000001a0: 2390 e8be 1b99 ef3c 3269 233e 5ab9 0cbe
000001b0: 47b3 96bc dace 9abe 9afb 893c 232e fdbc
000001c0: de21 e4bc 30b4 ce3d 5482 64be 80fe f0bd
000001d0: 4803 10bc 9198 19bc 1e5a 48bd f778 09bd
000001e0: fbde 85bf cba5 16bd 4a6f b23d 49c0 3ec1
000001f0: 2752 af3e ffb1 9ebc ac18 273d 0e31 5fbe
00000200: 6bf1 d43d c1fa 0e3f 629c 4ebd dbb4 83be
00000210: 6509 ebbd 0218 803e d371 a63d 3462 15bd
00000220: 6b5b 813d 3c6e 62be 1ec9 aebd 2975 47bf
00000230: 72b6 ebbf 6cf9 9f3e 2b91 8b3d 8b88 5a3e
00000240: 0ee9 9d3d 2773 14c0 01bb 363e fa4d b63d
00000250: d2c4 85be dae2 e83f 3761 20bc c900 dabd
00000260: 5a35 e9bd fbc4 79bd e4d2 d339 22a4 3c3e
00000270: ebbe b9bd 4915 1d40 1e13 41be bb55 c1bd
00000280: ba21 383e 85cf c83c 92fe 2c3e a9e1 7dbf
00000290: 17df d33d c889 403f a59f 703d 6e75 fe3d
000002a0: df4e 253f e367 893e be5f 1bbb 4ce0 a8bd
000002b0: fa47 64c0 f19a 033c b291 133e df5e 0d3d
000002c0: 3ab1 54c0 b926 393e 8e0b f53c 8c32 2cbd
000002d0: fe30 25be 9643 9d3d 0cb5 34bf 7d86 3fbe
000002e0: 4f1d 6a3f 3199 173c 49e4 81bc f6e6 653d
000002f0: 0ccd f53d e000 753d 7823 89bd c369 873e
00000300: 4143 71bd 6a9b 1f3e a460 3b3e 8ff0 69bd
00000310: 9a87 1dbf edad 823c d202 8c3f d0f9 94be
00000320: 5bba da3a 488b 0bbe ac96 a53d fcef c83f
00000330: 999e 233d 3758 bd3d 0876 723e cde3 ac3e
00000340: 8c26 3dc0 15bb 343d ad75 613c 9470 973c
00000350: 8368 83bd 9f9d e43e a5ff 3e3e 3bd8 35be
00000360: 1da1 d33e 7f81 673d 5de4 b33c e797 443e
00000370: d423 c13e 14df 76bd 03f9 363d 6a24 0abe
00000380: f2a7 bbbe 0f36 003e 20a4 f33e d21a aabe
00000390: b59f 913d 0aa8 1abf 48bd d73d 71bd 123f
000003a0: d07a 363d 2332 15bf b90a 253f 61fa 1dbe
000003b0: 72c4 1f3e 2d26 9b40 6034 da3c 2c4f 5dbe
000003c0: b5d3 dd3d 0c29 843d 2a7c e240 ef61 68bd
000003d0: f036 543f dec7 a13d 0832 4fbd abbd 93bd
000003e0: 5e1a d5be 54d2 acbd 6614 ca3d 533b 603f
000003f0: 1606 f93d bbb5 6b3d b1dd 23be 3261 6abe
0.49721754 -0.045982197 0.086480476 -0.07974187 -0.031717367 -0.3208711 0.45612937 0.80281115
0.027986187 0.061713126 2.4243822 0.08755275 0.055867326 -0.0755459 -0.026822813 -0.015243067
-0.0728071 -0.043255772 -0.45597726 0.4668144 -0.3091857 -4.2538815 0.10510555 0.12513211
-0.043769266 0.12533242 -0.0535232 0.049344793 -0.33381188 -5.3393073 1.1483972 0.00974269
-0.050974544 0.09028832 0.049477294 -0.09681211 -0.1363691 -1.0183443 -0.06383855 -0.90014243
-0.13407744 -0.26379877 -0.12230308 -1.7469195 -0.3095514 0.077218704 -0.08392565 0.066109486
-0.16061772 0.09974644 -0.10914325 0.14096974 0.13437754 0.09257842 0.04155106 0.0711189
-0.12201577 0.0033263254 -0.92318845 -0.009257057 -0.08619473 0.036664363 -0.05562736 -0.738173
-0.047247883 -0.23043448 1.3837463 -0.5588378 -0.034929406 0.11789348 -0.13531457 0.5715234
0.0627962 0.022167243 -0.037448104 0.9361311 -1.2388618 -1.2878236 0.04353327 -0.25694457
-0.17653349 0.025535956 -0.04764297 0.26487255 -3.6698153 -0.018833267 -1.1365538 -0.10903835
-0.09452276 -0.20871234 -0.07100976 0.063772246 -0.059902932 0.026916979 -1.8406163 -0.06374193
0.045400713 -3.1873703 0.36765015 0.2828807 -0.040589046 1.3722609 0.029159017 0.064044125
-0.45422468 0.029247811 0.15958098 -0.13742581 -0.018396033 -0.3023594 0.016843606 -0.030905789
-0.02784818 0.10092962 -0.22315341 -0.11767292 -0.008789845 -0.009374754 -0.048914067 -0.033562627
-1.0458673 -0.036779206 0.08712633 -11.921945 0.34242365 -0.019371985 0.040795013 -0.21796057
0.10397609 0.5585137 -0.050442107 -0.2572392 -0.11476401 0.25018317 0.08127179 -0.036470607
0.06316265 -0.22112364 -0.08534454 -0.7791315 -1.8415053 0.3124498 0.06814798 0.2134115
0.07710467 -2.3195283 0.17844774 0.089015916 -0.26126724 1.819423 -0.009788803 -0.10644681
-0.11387129 -0.06097887 0.00040402182 0.18421987 -0.09069618 2.4544241 -0.18854949 -0.0944018
0.17981616 0.024513016 0.16893986 -0.99172455 0.103452854 0.7521024 0.058746 0.12424742
0.6457347 0.26837072 -0.002370819 -0.08245906 -3.566893 0.008032546 0.14411047 0.034514304
-3.323317 0.18081178 0.029912736 -0.042040393 -0.1613197 0.076789066 -0.70588756 -0.18703647
0.9145097 0.009252832 -0.015855925 0.056128465 0.12002 0.059815288 -0.06696218 0.26447877
-0.05890203 0.1558663 0.18298584 -0.05711418 -0.61535037 0.015952075 1.0938361 -0.29096842
0.0016687618 -0.1362735 0.08085379 1.5698237 0.039946172 0.09245341 0.23677838 0.33767548
-2.9554777 0.044123728 0.013760966 0.018486299 -0.064164184 0.44651505 0.18652208 -0.17758267
0.41333857 0.05651998 0.021959478 0.19198571 0.37722647 -0.060271338 0.04467107 -0.13490453
-0.3665157 0.12520622 0.47586155 -0.33223587 0.0711054 -0.6041266 0.105341494 0.57320315
0.044550717 -0.5827963 0.64469486 -0.15427543 0.15602282 4.84841 0.026636302 -0.21612233
0.108313955 0.064531416 7.0776567 -0.05673402 0.8289633 0.0789945 -0.050584823 -0.07213911
-0.4162168 -0.084385544 0.09867172 0.8759052 0.12159364 0.05754636 -0.16002537 -0.2288864

fc.bias f4 [2]
00000000: 6b1c 843d 4459 9abd
0.06450733 -0.07536557
