audio_classifier.pth (torch, 10250 bytes, 2 tensors)

fc.weight f4 [2, 1024]
0	0x40492311	3.1427653
1	0xbe22bec0	-0.15893078
2	0x3e93d0f1	0.28870347
3	0xbc20079e	-0.009767441
4	0x3d74afae	0.059737854
5	0xbef4efae	-0.4783911
6	0x3fa2dd0a	1.2723706
7	0x3fd0f3f6	1.6324451
8	0x3e7bc388	0.24586308
9	0xbd9307a7	-0.07179194
10	0x410338b1	8.201341
11	0x3e9e2c6a	0.3089326
12	0x3deae37a	0.11469169
13	0xbecc6088	-0.39917397
14	0xbf374640	-0.7159157
15	0xbe157a99	-0.14597549
16	0x3ba4013f	0.0050050314
17	0xbefcce0d	-0.49375954
18	0xbfb3a07d	-1.4033352
19	0x3fd862b9	1.6905128
20	0xbdcc340a	-0.09970863
21	0xc1544182	-13.265993
22	0x3e4c73e4	0.19966084
23	0x3e85d5f3	0.26139793
24	0x3bed9409	0.007250313
25	0x3f3333c3	0.7000086
26	0xbd810c18	-0.06301135
27	0x3c3a79c0	0.0113815665
28	0xbf534dbb	-0.8254048
29	0xc1761d01	-15.382081
30	0x3fae254e	1.3605134
31	0xbd5c34bc	-0.05376123
32	0xbd0185d0	-0.031621754
33	0x3ec2d513	0.38053188
34	0xbbe14fe7	-0.00687598
35	0xbdde6890	-0.108597875
36	0xbf684121	-0.9072438
37	0xbff5ac6b	-1.9193243
38	0xbc4ed889	-0.012624868
39	0xbff0a8ae	-1.8801477
40	0xbf920048	-1.1406336
41	0xbfabffab	-1.3437399
42	0xbde997c2	-0.11405899
43	0xc065e5e3	-3.5921562
44	0xbf203ab9	-0.62589604
45	0x3c42a681	0.011880518
46	0x3c8545e1	0.016268672
47	0xbac3b64f	-0.0014931652
48	0xbef4cbdc	-0.47811782
49	0x3d24ec04	0.040264145
50	0xbf56faf2	-0.8397666
51	0x3e572804	0.21011358
52	0x3e3b7b63	0.18308787
53	0x3c32606f	0.010887249
54	0xbdd2e1c6	-0.10296969
55	0xbd251306	-0.040301345
56	0xbde2875c	-0.11060974
57	0xbdbfed7c	-0.093714684
58	0xc005f2c9	-2.0929434
59	0xbe78f1d3	-0.24310999
60	0xbdb05b88	-0.08611208
61	0xbc082a6e	-0.008310897
62	0x3e716b92	0.23576191
63	0xbf9f6a35	-1.2454287
64	0x3cd06aad	0.025441492
65	0xbf1ad6a3	-0.6048376
66	0x400ed768	2.2318974
67	0xbfb50ff4	-1.4145494
68	0x3d039415	0.032123644
69	0x3e616eb8	0.22014892
70	0xbdd2c462	-0.10291363
71	0x3fabc3e2	1.3419154
72	0xbcd21afc	-0.025647633
73	0x3e837ee8	0.2568276
74	0xbe6ce8cd	-0.23135681
75	0x3faf6c0e	1.3704851
76	0x3ebd118b	0.36927447
77	0xbf69d054	-0.9133351
78	0xbd39742e	-0.045276813
79	0xbf258921	-0.6466237
80	0xbe8e022e	-0.27736038
81	0xbdf83a03	-0.1212044
82	0x3cacf077	0.021110756
83	0x3f441f6a	0.76610434
84	0xc110211b	-9.008082
85	0x3d8a61ee	0.0675696
86	0xc04e5361	-3.223839
87	0x3f0e3283	0.55545825
88	0xbf0e9edb	-0.55711144
89	0x3e1de175	0.15418036
90	0xbd260cdd	-0.04053961
91	0x3a8ce7d1	0.0010750239
92	0x3b063fec	0.0020484878
93	0xbd86327e	-0.06552599
94	0xc00d3937	-2.206617
95	0x3e25f4f9	0.16206731
96	0x3d82c1ea	0.063846424
97	0xc0aea91f	-5.4581447
98	0x3f0c50fd	0.5481108
99	0x3ef86f10	0.48522234
100	0x3bba4173	0.0056840717
101	0x402ec914	2.7310228
102	0x3dfc8804	0.123306304
103	0x3e317a57	0.17331825
104	0xbf167980	-0.58779144
105	0x3e3ef75f	0.18649052
106	0x3e451493	0.1924613
107	0xbe3b63ee	-0.18299839
108	0xbd936732	-0.07197417
109	0xbf252871	-0.64514834
110	0xbd95d354	-0.07315698
111	0x3ccacc45	0.024755606
112	0xbdc81dcf	-0.097713105
113	0xbd032e59	-0.032026622
114	0x3e7e7792	0.248503
115	0xbe323dea	-0.17406431
116	0xbc14ec8e	-0.009089602
117	0xbdc16c2c	-0.0944446
118	0x3c7d8440	0.015473425
119	0x3d0ac6fa	0.033881165
120	0xbf84b453	-1.036753
121	0x3d0d6244	0.03451754
122	0x3dd9df49	0.106382914
123	0xc1a0369e	-20.026669
124	0x3e4d219e	0.20032355
125	0x3cf3375c	0.029689483
126	0xbc66020f	-0.014038577
127	0xbe886d8c	-0.26646078
128	0x3f04f02d	0.5192898
129	0x3fb5b8e6	1.4197052
130	0x3e8a4cb0	0.27011633
131	0xbec89e3e	-0.3918323
132	0xbe93b4ec	-0.2884897
133	0x3f4e1991	0.8050776
134	0x3d2b75c1	0.041860346
135	0x3c6b0f50	0.0143469125
136	0xba6acc50	-0.00089568365
137	0xbeedcd02	-0.4644547
138	0xbd364f08	-0.044508964
139	0xbfb06abd	-1.3782574
140	0xc02c5615	-2.692754
141	0x3e425bf0	0.18980384
142	0x3e25cb68	0.16190875
143	0x3f64fc10	0.89447117
144	0x3f33f8a8	0.70301294
145	0xc1373622	-11.450716
146	0x3ee1ef5f	0.44127938
147	0x3ceab982	0.02865291
148	0xbe27fec8	-0.16405785
149	0x410e3c42	8.889711
150	0x3db27394	0.08713451
151	0xbf29d5c3	-0.663418
152	0xbf36824e	-0.7129258
153	0xbd73d795	-0.059531767
154	0x3dd38eed	0.10329995
155	0x3e41923f	0.18903445
156	0xbe15fe7b	-0.14647858
157	0x40a07718	5.014538
158	0xbe940fa8	-0.28918195
159	0xbd721144	-0.059098497
160	0x3f144afe	0.5792693
161	0xbe388513	-0.18019514
162	0x3e14acaa	0.14518991
163	0xc019cfe2	-2.4033132
164	0x3ea03096	0.31287068
165	0x4001f03a	2.0302873
166	0xbc659b11	-0.0140140215
167	0x3e5b9c4c	0.21446341
168	0x3f954119	1.1660491
169	0x3f23cb3c	0.63981986
170	0xbdbd880f	-0.09254467
171	0xbc6aecd3	-0.01433869
172	0xc09f0977	-4.9699054
173	0x3dc0e019	0.09417743
174	0x3e768e1b	0.24077646
175	0x3e9dd456	0.30826062
176	0xc0fc2c88	-7.880436
177	0x3f068772	0.52550423
178	0xbd436622	-0.047704823
179	0xbe20bfec	-0.15698212
180	0xbf10f432	-0.5662261
181	0x3eb0b27d	0.34511176
182	0xc0070ea7	-2.1102693
183	0xbe888dca	-0.26670676
184	0x406d92c7	3.7120836
185	0x3e207daa	0.15672937
186	0xbe96604d	-0.29370347
187	0x3ceb55b5	0.028727392
188	0xbcda7eea	-0.026671845
189	0xbbc78ae8	-0.006089557
190	0x3b86801e	0.004104628
191	0x3e354e95	0.17705758
192	0xbd98b428	-0.07456237
193	0x3e350157	0.17676292
194	0x3eec5d55	0.46164957
195	0x3d08cc5f	0.03339803
196	0x3efef516	0.4979636
197	0xbdae8066	-0.08520584
198	0x3fefc5fb	1.8732294
199	0xbee129b0	-0.43977118
200	0xbe3f226e	-0.18665478
201	0xbe30c8bb	-0.17264073
202	0x3cfae977	0.030628903
203	0x40192ba4	2.3932886
204	0xbdd68b72	-0.10475816
205	0xbb764e96	-0.0037583462
206	0x3f6ca800	0.9244385
207	0x3f1da75d	0.615835
208	0xc13e1a99	-11.881494
209	0xbc1d7340	-0.009609997
210	0xbb884bc3	-0.004159422
211	0xbf19fa22	-0.601473
212	0xbdfd28fc	-0.12361333
213	0x3f8668e9	1.0500766
214	0x3e630c15	0.22172578
215	0xbe3fdd04	-0.18736655
216	0x3f9d32ad	1.228109
217	0xbd586101	-0.052826885
218	0xbe1873f5	-0.14887984
219	0x3e877e57	0.26463577
220	0x3f3a5fa5	0.7280219
221	0xbcac27ef	-0.021015136
222	0xbbea4f60	-0.0071505755
223	0xbe0cd70b	-0.13753907
224	0xbf87bb10	-1.0603962
225	0xbe9a52bf	-0.30141255
226	0x3f955a51	1.1668187
227	0xbf804ff6	-1.0024402
228	0x3d896b76	0.0670995
229	0xbf346b3c	-0.70476127
230	0x3e331256	0.17487463
231	0x3fbbd1e7	1.4673432
232	0x3da1e9d6	0.07905929
233	0xbfd82f2c	-1.6889396
234	0x3f8a59af	1.0808619
235	0xbdfc0bc5	-0.12306932
236	0xbd89caf1	-0.06728161
237	0x40bb8941	5.8605046
238	0xbde5296b	-0.111895405
239	0xbed9de8b	-0.425526
240	0x3e40b65a	0.18819562
241	0x3c3cf395	0.011532684
242	0x41b511c2	22.63367
243	0xbcae523a	-0.021279443
244	0x3f82417f	1.0176238
245	0x3c34493d	0.0110037895
246	0xb9cc1d8d	-0.0003893193
247	0x3a62aeaf	0.00086472457
248	0xbf8cd9b7	-1.1003941
249	0x3ca65958	0.020306274
250	0x3e917f0c	0.28417242
251	0x4071dd92	3.7791486
252	0x3e9512dd	0.29115954
253	0x3da85bf8	0.08220667
254	0xbde87f41	-0.11352397
255	0xbf199c73	-0.6000435

fc.bias f4 [2]
0	0xba6b048b	-0.00089652155
1	0xbc23665d	-0.009973136
