audio_classifier.pth (torch, 13902 bytes, 2 tensors)

fc.weight f4 [3, 1024]
00000000: 3bfb 3dc0 18e7 89be b909 043f a01c 60bd
00000010: 5b9d 493e 05d0 41bf 2594 b0bd 4c19 5a3f
00000020: b7e1 4ebd 08ba 40be 3520 0640 2601 91be
00000030: c961 ccbd 0792 eebe f6b2 fabf cb3a 6cbe
00000040: fc25 d9bd fc9a eb3f 998f 943e 8289 3340
00000050: 2867 0a3f ead1 1cc0 290e bdbd 0889 073f
00000060: aa0e dcbb b0fb 38c0 7e36 22bd 2096 ce3d
00000070: ac38 b2be 18d4 d8be 789d 1fc0 68f0 7abe
00000080: 2211 0dbe 4c17 993e 4e07 673d 8a9a 4dbe
00000090: 7e6f 42c0 b52d 3dc0 d267 d8bd b66c 06bf
000000a0: 5c4e fbbf 1265 1ebe 77d9 b0bc 7780 e7bf
000000b0: 96f9 febe 2fc7 bd3c 87d6 07c1 18b8 743d
000000c0: 369c e43e 32c7 81bf 9c90 d2bd db2b 303f
000000d0: 54c0 ac3f 1ca3 193e 3e0b 873d c47e 30bc
000000e0: c278 d5bd ef60 ec3b a39a b6be 3c01 06be
000000f0: 7803 963e aa9c d73d 0e91 a53f dab8 95bf
00000100: e05a 87bd 24a8 523c 9821 38be 07a0 143f
00000110: 512c abbd d9ea f13e 231e ba3d 1529 8440
00000120: ec2a a1bc 3469 b23c 49a8 d63e b916 0cbe
00000130: 049f 0040 0dc7 1540 b486 ef3c 87c0 06bc
00000140: e3ab 38bf 373a 1dbc b38a 9bbd 6a21 17bf
00000150: 331b d6bf 21fb 0dbd 0255 19c0 a2ed c93b
00000160: 2b04 603f 829a 0dc0 5170 2d3c c0a1 2cbe
00000170: 3c63 68bd e442 923d 223f e63e 82b1 2bbe
00000180: 45b6 fdbe 1f9d a6bf 4865 05c0 9377 24be
00000190: a612 8bbd 875b 85bf d24c 86be 0698 9ebe
000001a0: 09ba f4be 5a05 37be ee65 29bd 76eb fe3e
000001b0: 49b4 333e 5184 80bf b04a 943d 62c0 b2bd
000001c0: 00d6 d6bc 932a 44bf 0b66 26bf 58b3 18be
000001d0: 7a85 69be 0b7e e6bc cd19 71bd 1465 0e3d
000001e0: b1cb ab3f 620a 61be 01b3 65bb abf2 14c0
000001f0: 3623 863e 404d e63f 29fc 593d afe9 37c0
00000200: a790 c1bd c852 08c0 4c71 e93e 9e51 fbbd
00000210: f353 823f 101e 0ec0 a429 8d3d 5099 94bf
00000220: 9001 cb3c 0a2b 27bf ba53 bfbd 2cb1 9f3e
00000230: 43fb 07c0 9e12 96be 30d2 1240 89bc e53f
00000240: ba2f 97bf 6342 f1bf eb16 1ac0 9919 2b3e
00000250: 3bd0 473f c0f2 e7bc 8ae5 73bc c291 febe
00000260: fcdc 4f3f 2e3c 29bc 566f a9bd f355 36bf
00000270: 739d a33c 981a e0be db37 04c0 babf 32be
00000280: fce7 42bf 2be5 843f 140b 00be fa13 36bf
00000290: f37f 91be f33e 1dbe 3976 b33d 0b8a aabe
000002a0: 8e33 92bf 8870 3bbe 75c9 8dbd 3748 f3bd
000002b0: eb1f 6fc0 95e6 823a 6f0c e83e 347f e5bf
000002c0: 90db 41c0 3c7b c2bf 67bb e2bf c7e1 e63d
000002d0: 36bb 0ebf d1bf 293f b3ea 6bbf a01b 0040
000002e0: f6fe 3a3e 802c 6d3e b39f 3a3e 9804 f33d
000002f0: deda 5c3e 1156 383d fee1 a0be 11e3 af3e
00000300: b5c6 e73d bf0e 7e3e d5b0 a93e c30d 6bbc
00000310: 271f fb3e c134 8e3d fb7c cbbf 2618 5c3f
00000320: 4d22 22be 614b b3be e61e e23d 7fdc 203e
00000330: 9700 d6be d1af 263d 65d8 29bf 2d38 313d
00000340: 4755 043f ea74 0e3e 19ed 153e 8462 04bf
00000350: 08d9 183e b571 d63f c0f1 b73e 1cad c5be
00000360: c426 923e 498b b63d b04f 1c3f 582e d43e
00000370: 5252 9a3f 993d 1abd 0654 573e c612 2f3e
00000380: 6caa 58be faca 60bf 440c c33f 1a54 a3bd
00000390: 8aed ccbe 8550 ba40 fdc0 b03e e2dc aebf
000003a0: ef20 e6bd f0d6 853f 0946 ea3f 969b 6440
000003b0: 15cb e4bd 91bd 5a3f e0db e5bc a435 e3be
000003c0: 88b1 30bf c883 7d3d 1338 883c 5eca ac3c
000003d0: 1e35 e5bf 7d3f c53e 6d52 64be a1fe 4fbd
000003e0: 9f31 b5be d75b 2dbe 547d 4ebe 3162 983f
000003f0: 785a f53e 4800 103f b386 f3be 39d2 2b3e
-2.968459 -0.26934123 0.51577336 -0.0547148 0.19688933 -0.7570804 -0.08622006 0.8519485
-0.050508227 -0.18820965 2.0957158 -0.2832119 -0.099795885 -0.46595785 -1.9585865 -0.23069303
-0.10602948 1.8406672 0.29015806 2.8052678 0.54063654 -2.4503121 -0.092312165 0.5294347
-0.0067156153 -2.8903618 -0.03960275 0.10087228 -0.34808862 -0.42349315 -2.4939861 -0.2450577
-0.13776067 0.29900587 0.05640345 -0.20078483 -3.038055 -2.9559147 -0.10566677 -0.5250963
-1.9633288 -0.15468243 -0.02158807 -1.8086079 -0.49799794 0.023166267 -8.489875 0.059745878
0.4465043 -1.0138915 -0.10281488 0.6881692 1.3496194 0.15003628 0.06593941 -0.010772411
-0.10423423 0.007213704 -0.35664853 -0.13086408 0.2929952 0.10527928 1.2934892 -1.1697037
-0.0660913 0.012857471 -0.17981565 0.5805668 -0.08358062 0.47249487 0.090877794 4.130015
-0.019673787 0.02177868 0.41925266 -0.13680543 2.0097055 2.340274 0.029239036 -0.008224613
-0.7213728 -0.009596399 -0.07594814 -0.5903536 -1.672705 -0.034663323 -2.3958135 0.0061623612
0.8750636 -2.2125554 0.01058586 -0.16858578 -0.056735262 0.071416646 0.44970042 -0.16766933
-0.49553123 -1.30167 -2.0843067 -0.16061239 -0.06790666 -1.0418557 -0.26230484 -0.3097536
-0.47798184 -0.17873135 -0.041356973 0.49789017 0.17549242 -1.004038 0.07240808 -0.087281
-0.02622509 -0.76627463 -0.64999455 -0.14912164 -0.22804824 -0.028136274 -0.058862496 0.034764364
1.3421537 -0.21976617 -0.0035049322 -2.3273113 0.2619874 1.7992325 0.053218994 -2.873638
-0.09451418 -2.1300526 0.4559425 -0.122714266 1.0181869 -2.2205849 0.06892708 -1.1609287
0.024781018 -0.6530005 -0.093421414 0.3118986 -2.1247108 -0.2931108 2.2940788 1.7948161
-1.181144 -1.8848385 -2.4076488 0.16708983 0.7805211 -0.028313994 -0.014886269 -0.4972058
0.8119657 -0.010329289 -0.08273189 -0.712249 0.019972539 -0.4377029 -2.0659091 -0.1745595
-0.7613523 1.0382437 -0.12504226 -0.7112423 -0.2841793 -0.15356044 0.087627836 -0.33308443
-1.1421983 -0.18304646 -0.069231905 -0.11879008 -3.736323 0.0009986932 0.45321986 -1.7929444
-3.029026 -1.5193858 -1.7713441 0.11273532 -0.5575441 0.66308314 -0.92155 2.001686
0.18261322 0.23161507 0.18224983 0.118661106 0.21567866 0.045003954 -0.31422418 0.34352925
0.11317197 0.24810313 0.33142725 -0.014346543 0.49047205 0.06943656 -1.5897516 0.8597435
-0.15833397 -0.35018447 0.1104105 0.15709113 -0.41797325 0.040695015 -0.66345817 0.043266464
0.5169262 0.13911787 0.14641227 -0.5171282 0.14926541 1.6753451 0.35926628 -0.38608634
0.285452 0.08913285 0.61059093 0.41441607 1.2056372 -0.0376564 0.21028146 0.17097005
-0.21158761 -0.8780972 1.5238118 -0.079750255 -0.40024978 5.822329 0.34522238 -1.3661158
-0.1123675 1.0456219 1.8302623 3.5719962 -0.11171547 0.85445505 -0.028058946 -0.44376862
-0.6902089 0.061893255 0.0166283 0.02109259 -1.7906835 0.38525 -0.22297068 -0.050779942
-0.3538942 -0.16929565 -0.20164996 1.1904966 0.47920585 0.5625043 -0.47563705 0.16779412

fc.bias f4 [3]
00000000: 6c4b 793d e035 e93b a57a d7bd
0.060862944 0.007117018 -0.105214395
